…
620/620 - 260s - loss: 0.0059 - accuracy: 0.9982 - val_loss: 1.9228 - val_accuracy: 0.9250 - 260s/epoch - 419ms/step
Epoch 39/40

Epoch 39: saving model to checkpoint/cp.ckpt
620/620 - 260s - loss: 0.0100 - accuracy: 0.9969 - val_loss: 1.9868 - val_accuracy: 0.7750 - 260s/epoch - 419ms/step
Epoch 40/40

Epoch 40: saving model to checkpoint/cp.ckpt
620/620 - 260s - loss: 0.0066 - accuracy: 0.9981 - val_loss: 1.8485 - val_accuracy: 0.8250 - 260s/epoch - 419ms/step
Model: "sequential"
_________________________________________________________________
 Layer (type)                Output Shape              Param #   
=================================================================
 rescaling (Rescaling)       (None, 224, 224, 3)       0         
                                                                 
 conv2d (Conv2D)             (None, 222, 222, 32)      896       
                                                                 
 max_pooling2d (MaxPooling2D  (None, 111, 111, 32)     0         
 )                                                               
                                                                 
 conv2d_1 (Conv2D)           (None, 109, 109, 32)      9248      
                                                                 
 max_pooling2d_1 (MaxPooling  (None, 54, 54, 32)       0         
 2D)                                                             
                                                                 
 conv2d_2 (Conv2D)           (None, 52, 52, 64)        18496     
                                                                 
 max_pooling2d_2 (MaxPooling  (None, 26, 26, 64)       0         
 2D)                                                             
                                                                 
 flatten (Flatten)           (None, 43264)             0         
                                                                 
 dense (Dense)               (None, 128)               5537920   
                                                                 
 dense_1 (Dense)             (None, 1)                 129       
                                                                 
=================================================================
Total params: 5,566,689
Trainable params: 5,566,689
Non-trainable params: 0
_________________________________________________________________
WARNING:absl:Found untraced functions such as _jit_compiled_convolution_op, _jit_compiled_convolution_op, _jit_compiled_convolution_op, _update_step_xla while saving (showing 4 of 4). These functions will not be directly callable after loading.
…
