…
620/620 - 200s - loss: 0.0102 - accuracy: 0.9969 - val_loss: 2.4692 - val_accuracy: 0.7500 - 200s/epoch - 322ms/step
Epoch 39/40

Epoch 39: saving model to checkpoint/cp.ckpt
620/620 - 198s - loss: 0.0100 - accuracy: 0.9972 - val_loss: 2.2928 - val_accuracy: 0.7250 - 198s/epoch - 320ms/step
Epoch 40/40

Epoch 40: saving model to checkpoint/cp.ckpt
620/620 - 201s - loss: 0.0102 - accuracy: 0.9966 - val_loss: 2.2871 - val_accuracy: 0.7500 - 201s/epoch - 324ms/step
Model: "sequential"
_________________________________________________________________
 Layer (type)                Output Shape              Param #   
=================================================================
 rescaling (Rescaling)       (None, 200, 200, 3)       0         
                                                                 
 conv2d (Conv2D)             (None, 198, 198, 32)      896       
                                                                 
 max_pooling2d (MaxPooling2D  (None, 99, 99, 32)       0         
 )                                                               
                                                                 
 conv2d_1 (Conv2D)           (None, 97, 97, 32)        9248      
                                                                 
 max_pooling2d_1 (MaxPooling  (None, 48, 48, 32)       0         
 2D)                                                             
                                                                 
 conv2d_2 (Conv2D)           (None, 46, 46, 64)        18496     
                                                                 
 max_pooling2d_2 (MaxPooling  (None, 23, 23, 64)       0         
 2D)                                                             
                                                                 
 flatten (Flatten)           (None, 33856)             0         
                                                                 
 dense (Dense)               (None, 128)               4333696   
                                                                 
 dense_1 (Dense)             (None, 1)                 129       
                                                                 
=================================================================
Total params: 4,362,465
Trainable params: 4,362,465
Non-trainable params: 0
_________________________________________________________________
WARNING:absl:Found untraced functions such as _jit_compiled_convolution_op, _jit_compiled_convolution_op, _jit_compiled_convolution_op, _update_step_xla while saving (showing 4 of 4). These functions will not be directly callable after loading.
…
